model_saves/dumpy_of_choice.pth (torch, 1800 bytes, 2 tensors)

linear.weight f4 [10, 5]
00000000: 113f 213e 28e6 a9bd 73d5 153e 20e6 083e
00000010: 470a 223e 7ac4 043e e18f 72be a3b1 0bbf
00000020: 2288 ef3e e2c4 213e 0164 a63e 6a94 2e3c
00000030: 2c2a 97be c1d7 163f 21ab 20be c7cd bebe
00000040: 80c1 b83b 6d4c 68bd 70b6 54be 4c55 bd3e
00000050: f190 48be f2e7 42bd 990b 573e 2554 53bc
00000060: 3480 0a3d 57cb 26be fcfe 353d a3d6 c13d
00000070: 4b39 84bd 7466 ce3d 3ca8 923e 025b cabe
00000080: 8591 37bd bbc2 b23e 1c40 1cbe 413a 093e
00000090: 13a5 53bd 51df 66be 951c 293d d5ae 2bbe
000000a0: c97f 85be f89c 15bd 67be 7b3e 0292 a1be
000000b0: 2713 78bd 962f 063d 8154 cbbd f927 b03e
000000c0: e35c 993d 458a 35bd
0.15746714 -0.08295852 0.14632206 0.13369036 0.15824233 0.12965575 -0.23687698 -0.5456793
0.4678355 0.15797761 0.32498172 0.010655502 -0.29524362 0.58922964 -0.1569028 -0.3726637
0.0056383014 -0.05671351 -0.2077272 0.3697914 -0.19586541 -0.04758448 0.21000518 -0.01289848
0.03381367 -0.16288505 0.044432625 0.09464767 -0.0645624 0.10078135 0.28643978 -0.39522558
-0.044816513 0.34914193 -0.15258831 0.13401128 -0.0516711 -0.22546126 0.041287024 -0.16765912
-0.26074055 -0.03652665 0.24584351 -0.31556708 -0.06056514 0.032760225 -0.09928227 0.34405497
0.0748842 -0.044321317

linear.bias f4 [10]
00000000: 2092 0cbf 6270 b33d 1b6a e43d 3cc0 2a3f
00000010: 6bbc c63e 7437 7ebe 3d1f a53e 38db 373f
00000020: e2e2 923f 6b4a b33c
-0.5491047 0.0876167 0.111530505 0.66699576 0.38815627 -0.24825841 0.32250395 0.71818876
1.1475489 0.021886071
