model_saves/dumpy_of_choice.pth (torch, 1800 bytes, 2 tensors)

linear.weight f4 [10, 5]
000000 f2 b0 21 3e f0 f7 a9 bd d4 f9 15 3e e8 ee 08 3e
       0.15790156 -0.082992435 0.14646083 0.13372386
000010 49 cb 21 3e 67 61 04 3e 32 90 72 be 5d b1 0b bf
       0.15800203 0.12927781 -0.23687819 -0.5456751
000020 cd 76 ef 3e 76 ef 21 3e 29 7f a6 3e e7 10 2d 3c
       0.46770325 0.15814003 0.3251889 0.010563112
000030 59 f5 96 be 1d c4 16 3f 53 df 20 be 89 18 bf be
       -0.2948406 0.58892995 -0.15710191 -0.37323406
000040 65 64 b6 3b 8f 53 69 bd 8a be 54 be db 89 bd 3e
       0.005566167 -0.056964453 -0.2077581 0.37019238
000050 a9 1d 48 be a2 9c 42 bd 23 12 57 3e ca 75 50 bc
       -0.19542564 -0.047512658 0.21003012 -0.012723396
000060 38 79 09 3d 17 23 27 be fa dd 35 3d 3c ef c0 3d
       0.03356287 -0.1632198 0.044401146 0.0942063
000070 c6 cb 83 bd 1a 1b cf 3d 6f d6 92 3e 8a 58 ca be
       -0.06435351 0.10112591 0.28679225 -0.39520675
000080 15 98 37 bd 47 d6 b2 3e 71 6d 1c be 23 e1 09 3e
       -0.04482277 0.34929106 -0.15276124 0.13464789
000090 87 66 52 bd 9f 40 66 be 34 e1 28 3d b0 67 2c be
       -0.05136731 -0.22485588 0.041230395 -0.16836429
0000a0 5b 0d 87 be 78 2e 1e bd 4a 8a 79 3e c6 dc a1 be
       -0.26377377 -0.038618535 0.2436916 -0.3161375
0000b0 b2 6f 6a bd 58 00 04 3d 58 6b cb bd 1e 0c b0 3e
       -0.057235427 0.03222689 -0.099325836 0.34384245
0000c0 fe 46 99 3d fb 25 34 bd
       0.07484244 -0.043981533

linear.bias f4 [10]
000000 89 9a 0c bf 33 c0 b3 3d 15 7b e4 3d 42 cf 2a 3f
       -0.549233 0.087768935 0.111562885 0.667225
000010 2f a1 c6 3e 04 24 7e be 84 0c a5 3e 3e c7 37 3f
       0.38794848 -0.24818426 0.3223611 0.71788394
000020 e9 22 93 3f 2d ef b4 3c
       1.1495029 0.022086704
