model_saves/dumpy_of_choice.pth (torch, 1800 bytes, 2 tensors)

linear.weight f4 [10, 5]
00000000: bdbd 213e 56e3 a9bd d503 163e c2f2 083e
00000010: 75be 213e e06f 043e e583 72be e0ae 0bbf
00000020: 3779 ef3e 14de 213e 1580 a63e 9f22 2d3c
00000030: f5f4 96be 46c4 163f 2be1 20be e000 bfbe
00000040: 338e bb3b e6cf 68bd 53b1 54be 986a bd3e
00000050: bd47 48be 8731 43bd c1f4 563e ab62 51bc
00000060: aa46 0a3d 1815 27be 970c 363d ac01 c13d
00000070: 5cc1 83bd 8ef9 ce3d f6db 923e 4552 cabe
00000080: 5370 37bd 64d8 b23e 807a 1cbe beb3 093e
00000090: c501 53bd 865f 66be 4b9d 283d 4b31 2cbe
000000a0: fde5 86be fd0b 1dbd acc7 793e 93d1 a1be
000000b0: 85ed 6bbd f80a 043d 1466 cbbd 200d b03e
000000c0: c049 993d 8235 34bd
0.15795036 -0.08295314 0.146499 0.13373855 0.1579531 0.12933302 -0.23683126 -0.54563713
0.46772167 0.15807372 0.32519594 0.010567336 -0.29483762 0.5889324 -0.15710895 -0.37305355
0.0057237386 -0.056838892 -0.20770769 0.36995387 -0.19558616 -0.047654655 0.20991804 -0.012779872
0.033758797 -0.1631664 0.0444456 0.09424147 -0.06433365 0.101061925 0.28683442 -0.39515892
-0.044784855 0.34930718 -0.15281105 0.13447472 -0.05151536 -0.22497377 0.04116563 -0.16815679
-0.26347342 -0.03834151 0.24392575 -0.31605205 -0.057599563 0.032237023 -0.09931579 0.34385014
0.0748477 -0.04399634

linear.bias f4 [10]
00000000: 1c9d 0cbf 3fab b33d e678 e43d bdc6 2a3f
00000010: ebb0 c63e 152e 7ebe 3b07 a53e 84cf 373f
00000020: 341b 933f 48df b43c
-0.5492723 0.08772897 0.11155872 0.667095 0.38806853 -0.24822266 0.3223208 0.7180102
1.1492677 0.022079125
